input_files/cifar_net.pth (torch, 251519 bytes, 10 tensors)

conv1.weight f4 [6, 3, 5, 5]
-0.06316556 -0.020017393 0.040116593 -0.075752124 0.09073201 0.06877269 0.07922949 0.08819783
0.10298067 -0.03637497 -0.042696662 0.015184835 -0.041896418 0.023107916 0.034641415 0.02707377
0.00030542165 0.096611544 0.020722523 -0.11296566 -0.041830182 -0.041575342 0.054804534 -0.05394614
0.05742909 0.06343077 0.05271426 0.08511859 0.08603552 -0.10191886 -0.007910073 0.08672896
0.0064872205 -0.018564418 0.011837199 -0.031579897 -0.016529754 -0.059956715 0.05458723 0.08280264
-0.013508752 -0.104044035 -0.11067845 0.054891005 -0.022465885 -0.04806578 0.028387725 -0.011197798
-0.008265488 0.04580927 -0.1056741 -0.06802774 0.09100431 -0.0034048557 -0.074205086 -0.05998471
0.11449687 -0.06548289 -0.023206502 0.043629915 -0.07429299 -0.10246221 0.09075615 0.07943873
0.020299107 0.014803395 -0.01596225 -0.11497847 -0.047853 -0.013146982 0.10274315 0.040927276
0.039789155 -0.06639248 0.11510496 0.015790224 -0.107541285 -0.038104072 -0.10360879 0.08822562
0.10424012 0.08424896 -0.06593597 0.022773191 0.067321 -0.08738844 -0.10521182 0.022246718
-0.043149278 -0.01817803 0.10014087 -0.063232355 0.09508802 0.045104325 -0.09140605 -0.018081099
0.07295662 -0.04677421 0.045255736 0.08719875 -0.05455248 -0.09224434 -0.10273634 -0.065949336
-0.07361746 0.06250176 0.011909321 0.091762915 0.04437065 -0.05780289 -0.053184517 -0.062182695
0.06575054 0.04451859 -0.026421562 0.099192694 0.01312688 -0.06131003 0.08579557 0.10736458
0.08976118 -0.103941254 -0.03347677 -0.07884291 0.05282958 -0.066791184 0.05891733 0.038440555
0.035906225 -0.040723138 0.05268067 -0.010611095 0.1102255 0.065099195 -0.003278777 -0.087618515
0.023989022 0.04961112 0.101307645 -0.094140254 -0.10787232 -0.10816316 -0.10869959 -0.056209315
-0.0919 0.01393345 -0.045147225 -0.065150395 -0.03881003 0.02002196 0.036285684 0.09668256
0.088955745 0.0720804 0.063917145 0.114585444 0.045430794 -0.063335866 -0.08558562 -0.03289379
-0.033146076 0.07393661 0.013374865 0.107978314 0.0009520054 -0.090645485 0.10698338 -0.094653636
0.040197775 -0.09662676 -0.093169 -0.046333008 -0.06330566 -0.022564337 0.11295633 0.111038566
-0.06813586 0.10159731 0.09510967 -0.012562476 0.034261167 -0.008711852 -0.095876954 -0.06294525
-0.018636532 -0.08518226 -0.07979849 0.07263629 -0.03742601 -0.10238379 -0.023231886 -0.023641333
-0.11061602 0.074884 0.091341004 0.021275207 -0.01149144 -0.1129385 0.10858117 0.0096450895
-0.016500391 -0.06824908 -0.00085843354 -0.011512198 0.034323707 -0.094762616 0.02777256 0.07589567
0.029729545 -0.09846838 -0.09820816 0.0954338 -0.06216776 -0.034667477 -0.037392005 -0.06891826
0.06884499 -0.04799711 -0.03872586 0.029018253 0.035508737 0.057703957 -0.058496263 0.09204736
-0.0405654 -0.084863715 -0.026855 -0.03485612 -0.05488262 0.023805782 -0.021559015 0.08192861
0.08348796 0.0075000525 0.03875932 -0.111501865 0.053885236 -0.11228054 -0.066033185 -0.027133346
0.041072786 -0.08465725 0.011899695 -0.0750613 -0.043827236 0.0677845 -0.10549298 0.05643031
0.024469763 0.10444225 -0.0045111105 0.059402198 0.0747347 -0.011564903 0.08205928 -0.07381016
00000000: f25c 81bd 84fb a3bc 4c51 243d ee23 9bbd
00000010: b4d1 b93d b2d8 8c3d 1243 a23d 10a1 b43d
00000020: 88e7 d23d ecfd 14bd b2e2 2ebd d0c9 783c
00000030: 949b 2bbd d04c bd3c 28e4 0d3d d0c9 dd3c
00000040: 0021 a039 46dc c53d 48c2 a93c 8a5a e7bd
00000050: 2056 2bbd e84a 2abd b87a 603d a1f6 5cbd
00000060: c43a 6b3d fee7 813d e8ea 573d a852 ae3d
00000070: 6433 b03d d6ba d0bd 4099 01bc f49e b13d
00000080: c092 d43b 6814 98bc d0f0 413c ec59 01bd
00000090: 6869 87bc 2c95 75bd dc96 5f3d 6e94 a93d
000000a0: d053 5dbc 0a15 d5bd 62ab e2bd 64d5 603d
000000b0: 600a b8bc a0e0 44bd 608d e83c f876 37bc
000000c0: f86b 07bc 80a2 3b3d aa6b d8bd 2152 8bbd
000000d0: 7860 ba3d 0024 5fbb d6f8 97bd 87b2 75bd
000000e0: 567d ea3d e51b 86bd 901b bebc 48b5 323d
000000f0: ec26 98bd b5d7 d1bd 5cde b93d c6b0 a23d
00000100: 504a a63c f089 723c 44c3 82bc d579 ebbd
00000110: 8201 44bd 7066 57bc 006b d23d 5ca3 273d
00000120: f4f9 223d c8f8 87bd 26bc eb3d 805a 813c
00000130: 9b3e dcbd 0413 1cbd d830 d4bd a2af b43d
00000140: d87b d53d b88a ac3d 7009 87bd d88e ba3c
00000150: 98df 893d b6f8 b2bd 4b79 d7bd c03e b63c
00000160: 4cbd 30bd 18ea 94bc a816 cd3d f77f 81bd
00000170: 82bd c23d 50bf 383d 1833 bbbd d01e 94bc
00000180: 486a 953d 5096 3fbd 145e 393d 4295 b23d
00000190: 6c72 5fbd 9aea bcbd 6e67 d2bd 7210 87bd
000001a0: c0c4 96bd ec00 803d 501f 433c 32ee bb3d
000001b0: 00be 353d b9c2 6cbd 02d8 59bd 48b3 7ebd
000001c0: 38a8 863d 2059 363d 0872 d8bc 8a25 cb3d
000001d0: 2012 573c 3a20 7bbd 96b5 af3d f6e1 db3d
000001e0: b6d4 b73d 27df d4bd f01e 09bd 6478 a1bd
000001f0: d463 583d d1c9 88bd 4c53 713d d873 1d3d
00000200: 6812 133d 4ecd 26bd b0c7 573d 28da 2dbc
00000210: e8bd e13d ba52 853d c0e0 56bb 5671 b3bd
00000220: a084 c43c 0835 4b3d 627a cf3d 9bcc c0bd
00000230: 2aec dcbd a684 ddbd e49d debd bd3b 66bd
00000240: 1136 bcbd 2049 643c 4cec 38bd 926d 85bd
00000250: 44f7 1ebd 1805 a43c 4ca0 143d 8201 c63d
00000260: 6e2e b63d e49e 933d fee6 823d c6ab ea3d
00000270: a415 3a3d 3cb6 81bd 8347 afbd a4bb 06bd
00000280: 2ec4 07bd 146c 973d 4022 5b3c bc23 dd3d
00000290: 0090 793a 57a4 b9bd 1a1a db3d c4d9 c1bd
000002a0: 6ca6 243d 40e4 c5bd 64cf bebd aec7 3dbd
000002b0: 66a6 81bd d8d8 b8bc a655 e73d 3068 e33d
000002c0: d08a 8bbd 4012 d03d dcc8 c23d d8d2 4dbc
000002d0: 7055 0c3d 28bc 0ebc 235b c4bd 70e9 80bd
000002e0: a4ab 98bc 0974 aebd 646d a3bd 56c2 943d
000002f0: 044c 19bd 98ae d1bd cc50 bebc 78ab c1bc
00000300: a78a e2bd c85c 993d fe10 bb3d 5849 ae3c
00000310: 9846 3cbc 4d4c e7bd ce5f de3d 7006 1e3c
00000320: d42b 87bc 2cc6 8bbd 8008 61ba a89d 3cbc
00000330: 0497 0c3d e712 c2bd 4883 e33c 306f 9b3d
00000340: 608b f33c caa9 c9bd 5c21 c9bd cc72 c33d
00000350: 9fa3 7ebd 7cff 0dbd 5c28 19bd 0425 8dbd
00000360: 9afe 8c3d 9e98 44bd 029f 1ebd b0b7 ed3c
00000370: 9c71 113d fc5a 6c3d c799 6fbd 5483 bc3d
00000380: e827 26bd 07cd adbd 04ff dbbc 4ac5 0ebd
00000390: 99cc 60bd 5804 c33c 889c b0bc 30ca a73d
000003a0: bcfb aa3d 00c3 f53b 18c2 1e3d 175b e4bd
000003b0: c4b6 5c3d 57f3 e5bd 683c 87bd c046 debc
000003c0: f03b 283d c860 adbd f0f6 423c bdb9 99bd
000003d0: 3084 33bd 9ad2 8a3d b40c d8bd 7823 673d
000003e0: d074 c83c d2e5 d53d f0d1 93bb b84f 733d
000003f0: 820e 993d b87a 3dbc b20e a83d c829 97bd

conv1.bias f4 [6]
-0.09599961 0.084444866 -0.01575628 0.098909885 -0.0214869 0.05449274
00000000: 729b c4bd 6ef1 ac3d 5013 81bc 4491 ca3d
00000010: 4c05 b0bc c833 5f3d

conv2.weight f4 [16, 6, 5, 5]
0.07762769 0.075527355 -0.03340254 0.014672525 0.028787881 -0.006759718 0.03693413 -0.06325878
0.05331193 -0.05334749 -0.049579643 0.0369407 -0.039334677 0.037213176 -0.016900636 0.0477428
-0.0128176585 0.017081082 -0.0651146 -0.0070573464 0.0017665029 -0.07761214 -0.02411637 -0.009873889
0.07300651 -0.033751473 0.041882493 -0.055141326 0.0723111 0.062073603 0.07957968 0.07105915
-0.028553214 0.023468293 0.0044787973 0.069894165 -0.026435714 -0.039806638 -0.08065506 -0.00036969036
0.051195756 0.064697266 -0.0029713511 -0.08042439 -0.076551646 -0.026738182 0.02826345 0.038128853
-0.06116551 0.07878415 0.057861373 -0.07361136 0.044181988 -0.059737943 0.046101257 0.052544355
-0.0024897903 -0.03772961 0.022216074 -0.0647671 -0.042558894 -0.0019490272 -0.041174922 0.008997738
-0.004438497 -0.075246155 -0.07679025 -0.02804698 -0.07354708 -0.02100771 -0.035020456 -0.018259875
-0.0055197105 0.077278525 0.024902068 0.06324783 -0.02219893 -0.025666445 0.035507433 0.014210135
-0.07505846 -0.076649 -0.07192349 0.040347718 0.031560592 -0.030377224 -0.03396184 -0.073896475
0.034259394 -0.05235961 0.04744011 -0.038848355 0.0078590885 -0.0010577217 0.06010823 -0.039683376
-0.046468683 0.035772756 -0.06665978 0.04662013 0.020837873 -0.013529941 0.0072045773 0.010626122
0.011979222 0.005077064 -0.072299205 -0.07527998 0.01682134 -0.047459096 -0.04848227 -0.07360571
0.067099005 -0.056423478 0.07335773 -0.018773936 0.023152232 0.024877034 0.06704815 -0.0030403733
-0.07577845 0.0039303675 0.0046493486 0.078078076 0.007807255 0.009656563 0.071746156 -0.067456126
0.06172116 -0.0045244023 -0.040763978 -0.005731985 -0.075150095 -0.030069582 0.032840602 0.039229013
-0.07397787 0.028484263 -0.024464205 -0.053506084 0.034105465 -0.044577084 -0.07754059 -0.019639526
0.077176645 0.030241959 0.03280043 0.04109191 -0.0066114143 -0.024764482 -0.010415688 -0.039641708
-0.015026823 -0.038093843 0.06226757 -0.009534605 -0.07591562 0.030359872 0.06629911 0.018872589
0.023829587 0.03808959 0.06350915 0.013453737 0.016967237 0.05329421 -0.04905288 0.0462344
-0.06711029 -0.053267002 -0.0023271516 0.048715502 0.039614163 0.032469705 -0.025103513 -0.013976052
-0.05205868 -0.015572071 -0.020360671 -0.062784515 0.060005426 0.051559985 0.077574775 -0.01174251
0.060731784 -0.066447206 0.021271244 -0.054057553 0.031406373 0.023172162 0.07592459 -0.03564748
-0.027429804 -0.07788854 0.065588996 -0.015838906 0.03652887 0.066002965 -0.038763717 -0.07860558
0.0301667 0.02484268 -0.072957814 -0.00955417 0.024403185 -0.01872006 -0.05439009 -0.06898512
0.07422802 -0.0745651 -0.008958094 -0.021250606 -0.025570408 -0.05861353 0.051274076 -0.06807463
0.023436673 -0.02892068 0.01224117 0.07069233 0.019390605 -0.0343748 -0.036136057 -0.017962672
-0.0325373 -0.06943269 0.0249165 -0.024817917 -0.0046823323 0.011984527 -0.015691943 0.024167217
-0.0782532 -0.067927204 -0.0554095 0.008015238 0.034591556 -0.054288886 -0.00127244 -0.07451542
0.07026023 0.07426804 0.025168337 -0.046761096 0.05537185 0.038873635 0.0023281053 -0.08124926
0.04987602 0.005546078 0.024241917 -0.031996075 0.062352628 -0.011715613 0.039926425 0.023122735
00000000: 44fb 9e3d 16ae 9a3d 1ad1 08bd 0865 703c
00000010: 90d4 eb3c a080 ddbb 3e48 173d d28d 81bd
00000020: 9c5d 5a3d e682 5abd 0614 4bbd 224f 173d
00000030: 661d 21bd d86c 183d 3473 8abc f48d 433d
00000040: 2801 52bc a0ed 8b3c ce5a 85bd 5041 e7bb
00000050: 008a e73a 1df3 9ebd b28f c5bc 18c6 21bc
00000060: 7084 953d fc3e 0abd fa8c 2b3d dfdb 61bd
00000070: d817 943d e440 7e3d acfa a23d 7687 913d
00000080: 6ee8 e9bc 9440 c03c e0c2 923b ac24 8f3d
00000090: b68f d8bc 490c 23bd 7b2e a5bd 00d3 c1b9
000000a0: a4b2 513d 0080 843d 00bb 42bb 8bb5 a4bd
000000b0: 1cc7 9cbd 080a dbbc c088 e73c 002d 1c3d
000000c0: b088 7abd 9659 a13d 0c00 6d3d 8dc1 96bd
000000d0: 2cf8 343d c6af 74bd acd4 3c3d c038 573d
000000e0: c02b 23bb 5d8a 1abd 7cfe b53c 9da4 84bd
000000f0: 3c52 2ebd 8076 ffba 09a7 28bd 406b 133c
00000100: d070 91bb a81a 9abd 3544 9dbd c8c2 e5bc
00000110: da9f 96bd 5c18 acbc 9c71 0fbd bc95 95bc
00000120: b0de b4bb 3444 9e3d 6cff cb3c 1488 813d
00000130: 88da b5bc 7042 d2bc 3e70 113d a0d1 683c
00000140: 40b8 99bd 27fa 9cbd 9f4c 93bd a643 253d
00000150: ae45 013d a8d9 f8bc 921b 0bbd 0957 97bd
00000160: 9453 0c3d 0877 56bd 9050 423d 741f 1fbd
00000170: 68c3 003c 40a3 8aba 0c34 763d 098b 22bd
00000180: f255 3ebd 7486 123d ec84 88bd c0f4 3e3d
00000190: 30b4 aa3c b0ac 5dbc 6014 ec3b 3019 2e3c
000001a0: 8044 443c 805d a63b 9b11 94bd 642c 9abd
000001b0: e8cc 893c 7864 42bd 5895 46bd 97be 96bd
000001c0: 346b 893d 4e1c 67bd 943c 963d cccb 99bc
000001d0: c0a9 bd3c ecca cb3c 8a50 893d 0041 47bb
000001e0: bb31 9bbd 50ca 803b 9059 983b 66e7 9f3d
000001f0: 00d4 ff3b 9036 1e3c a6ef 923d 7026 8abd
00000200: 54cf 7c3d 7041 94bb 21f8 26bd 60d3 bbbb
00000210: 4be8 99bd 7c54 f6bc de83 063d 9aae 203d
00000220: b681 97bd d457 e93c 2869 c8bc 3229 5bbd
00000230: 2cb2 0b3d 7696 36bd 9acd 9ebd 12e3 a0bc
00000240: ca0e 9e3d fcbd f73c be59 063d fe4f 283d
00000250: 90a4 d8bb e2de cabc 90a6 2abc 585f 22bd
00000260: 1033 76bc 4a08 1cbd 480c 7f3d 0837 1cbc
00000270: a679 9bbd 44b5 f83c d4c7 873d b09a 9a3c
00000280: 4436 c33c d403 1c3d 1611 823d 106d 5c3c
00000290: e0fe 8a3c 084b 5a3d aceb 48bd 4860 3d3d
000002a0: 1f71 89bd 802e 5abd 2083 18bb e889 473d
000002b0: 7642 223d f4fe 043d e2a5 cdbc d0fb 64bc
000002c0: 7c3b 55bd 0022 7fbc 6ccb a6bc 2b95 80bd
000002d0: 40c8 753d 9030 533d 86df 9e3d a863 40bc
000002e0: e4c1 783d 7915 88bd 0841 ae3c 746b 5dbd
000002f0: f8a3 003d 8cd3 bd3c 5a7e 9b3d 1803 12bd
00000300: 78b4 e0bc 0784 9fbd 8653 863d 98c0 81bc
00000310: 4c9f 153d 902c 873d b4c6 1ebd f6fb a0bd
00000320: 2820 f73c e082 cb3c e86a 95bd 1889 1cbc
00000330: 30e9 c73c d05a 99bc 25c8 5ebd 1248 8dbd
00000340: dc04 983d 96b5 98bd f8c4 12bc c015 aebc
00000350: 0879 d1bc be14 70bd c404 523d b66a 8bbd
00000360: 44fe bf3c 10eb ecbc 308f 483c 24c7 903d
00000370: 0cd9 9e3c 97cc 0cbd 6703 14bd 7426 93bc
00000380: d545 05bd ba32 8ebd b01d cc3c f24e cbbc
00000390: 406e 99bb c05a 443c 648c 80bc 54fa c53c
000003a0: 3743 a0bd 6b1d 8bbd 12f5 62bd 5852 033c
000003b0: e0af 0d3d 065e 5ebd 00c8 a6ba 8a9b 98bd
000003c0: 98e4 8f3d d819 983d d42d ce3c 9088 3fbd
000003d0: 98cd 623d f639 1f3d 2093 183b 0366 a6bd
000003e0: cc4a 4c3d e0bb b53b fc96 c63c 510e 03bd
000003f0: 7865 7f3d d8f2 3fbc e489 233d e46b bd3c

conv2.bias f4 [16]
-0.0019428805 -0.07249934 -0.011181414 -0.005136743 -0.03278514 0.060269877 -0.04807304 0.0022547543
-0.009744778 0.050033733 0.050967604 -0.07709008 -0.060087234 -0.019865856 0.011621058 -0.034017146
00000000: 40a8 feba 897a 94bd 4032 37bc 2052 a8bb
00000010: b649 06bd 8cdd 763d 3ce8 44bd 80c4 133b
00000020: 90a8 1fbc 2cf0 4c3d 68c3 503d 67e1 9dbd
00000030: 081e 76bd b8bd a2bc 4066 3e3c 9055 0bbd

fc1.weight f4 [120, 400]
-0.017472964 -0.024641408 0.043787222 -0.012606829 -0.029523684 -0.009336244 0.03639653 -0.021110518
-0.0032243729 0.04943337 0.03933763 -0.019929785 0.02783766 0.03064258 0.04810414 -0.034144655
-0.0008398108 0.010170061 -0.034584153 -0.034388624 0.04100198 -0.039973877 -0.034369357 -0.033177663
-0.008997887 -0.03223466 -0.038862586 -0.010692645 -0.048314136 0.0080443695 -0.023132378 -0.042213794
0.029301818 -0.012975294 -0.026044656 0.013398822 0.031785157 0.01139462 0.032907125 0.046154927
-0.02208199 0.0119524 0.021068607 0.047937606 -0.031320848 0.020747136 0.04942802 0.04716247
-0.03975012 -0.03275273 0.014460105 0.020316947 -0.0012980215 0.04254478 0.038443875 -0.029282391
0.042953674 0.029493455 0.020053368 -0.009124912 -0.047511287 0.037907172 0.018932756 -0.016905606
0.03072222 -0.0120746605 0.016995575 -0.0010782182 0.011379182 0.043560255 -0.042706758 0.004178684
-0.021428002 0.0055580437 0.024708066 -0.033164874 0.01607759 0.039814007 0.02442782 0.008616962
0.01901139 -0.048672404 0.044056002 0.038262304 0.013185311 0.017380934 0.026635688 0.034309838
-0.016830433 0.038869437 -0.021785444 0.035309847 -0.0037929602 0.0033467524 -0.01843492 0.02266125
0.0041797273 -0.020415867 0.049958955 0.02199978 -0.019536376 0.025323894 -0.032810263 -0.032502227
-0.04890346 -0.025284171 -0.020397736 0.0013473444 -0.011820875 -0.0007661469 -0.03196603 0.013761755
0.023405354 -0.013078231 0.01814543 0.029348504 -0.0488966 -0.022619272 -0.01181069 0.049196664
0.041456614 -0.032046456 -0.03720069 -0.048904467 -0.023282487 -0.0049809106 0.032479536 -0.037874945
-0.034175057 -0.04003734 -0.003611613 0.031903353 0.046853613 0.04707698 0.0043359473 -0.0015783533
0.035697985 -0.018548794 0.008352727 0.027824204 0.042467352 -0.022295207 0.036904085 0.029966969
0.023483042 0.025463533 0.044772524 -0.023418779 -0.042069755 -0.030781258 0.036182385 -0.022506995
0.03519464 0.008310895 0.032891843 0.010208469 0.032006416 0.033954423 -0.020330315 0.017559793
-0.014549237 -0.009349961 0.015552033 0.023437697 -0.033887792 -0.016160358 -0.043583777 0.033807088
0.015697215 0.0036355183 -0.03847584 0.027159143 0.005426429 0.040565763 -0.026342476 0.0043082237
0.028637659 -0.03722899 -0.01669227 -0.0067114346 -0.006954957 -0.03194815 0.041953664 -0.03597169
-0.0064072907 0.009409718 -0.010235798 0.03719062 -0.035627972 0.025904503 -0.013284255 -0.027593989
0.00035244226 0.006022703 -0.0021911934 0.023895573 0.016973648 0.039076183 0.03737982 -0.025977487
0.0113456845 0.008518599 0.014115591 0.0037836023 -0.018829335 -0.041350067 -0.012502827 0.03134479
-0.021444572 0.015609983 0.0048558787 -0.033621926 0.04414082 0.049636964 -0.040186144 0.038125176
0.03257717 0.03728466 -0.027293582 0.041753385 0.0009401068 0.035813753 0.014546115 -0.03439815
0.037075233 0.033643644 -0.03615562 0.019094478 0.019195449 -0.04609366 0.0065021515 0.03433219
0.020441573 0.00663843 -0.035638254 0.035328235 -0.004110098 0.024602737 0.023078237 -0.012565143
-0.03197994 0.030199092 0.042837616 0.041308645 0.006834794 0.012533415 0.028490942 -0.01751696
0.006800063 0.029587094 -0.025186175 -0.049884815 -0.0066346712 -0.047718067 -0.03307574 0.011290342
00000000: 7623 8fbc c7dc c9bc 3b5a 333d e08c 4ebc
00000010: a7db f1bc 0cf7 18bc 8714 153d f7ef acbc
00000020: 0050 53bb a57a 4a3d 7f20 213d ca43 a3bc
00000030: ce0b e43c 2606 fb3c d908 453d 44db 0bbd
00000040: c026 5cba 54a0 263c 1da8 0dbd 16db 0cbd
00000050: b1f1 273d a6bb 23bd e2c6 0cbd 4de5 07bd
00000060: e06b 13bc 7e08 04bd 602e 1fbd 3430 2fbc
00000070: 0be5 45bd 88cc 033c 1d80 bdbc 5fe8 2cbd
00000080: 5e0a f03c 5496 54bc 9a5b d5bc bc86 5b3c
00000090: 2731 023d 80b0 3a3c 9fc9 063d f30c 3d3d
000000a0: 4ae5 b4bc 00d4 433c 1298 ac3c 395a 443d
000000b0: 4a4a 00bd e6f5 a93c 0975 4a3d 6f2d 413d
000000c0: 06d1 22bd ba27 06bd 14ea 6c3c ba6f a63c
000000d0: 6022 aaba 6f43 2e3d 5377 1d3d a0e1 efbc
000000e0: 31f0 2f3d 429c f13c f646 a43c a880 15bc
000000f0: 329b 42bd 8d44 1b3d de18 9b3c a07d 8abc
00000100: 2aad fb3c ccd4 45bc 4e3a 8b3c 0053 8dba
00000110: c06f 3a3c 3d6c 323d 48ed 2ebd 58ed 883b
00000120: c789 afbc 4020 b63b 9268 ca3c e4d7 07bd
00000130: 26b5 833c 0314 233d da1c c83c 282e 0d3c
00000140: c6bd 9b3c b75c 47bd 1174 343d efb8 1c3d
00000150: 3407 583c 7662 8e3c 1633 da3c 7988 0c3d
00000160: fadf 89bc 8f35 1f3d 6377 b2bc 0fa1 103d
00000170: 5093 78bb 3055 5b3b d404 97bc 16a4 b93c
00000180: 18f6 883b 2d3f a7bc c3a1 4c3d e238 b43c
00000190: c00a a0bc 0e74 cf3c 0e64 06bd 0e21 05bd
000001a0: ff4e 48bd c020 cfbc 2719 a7bc 6099 b03a
000001b0: 58ac 41bc 40d7 48ba d0ee 02bd fc78 613c
000001c0: 96bc bf3c 1446 56bc baa5 943c 466c f03c
000001d0: cd47 48bd 0d4c b9bc a081 41bc 7182 493d
000001e0: 69ce 293d 2543 03bd c05f 18bd 0d50 48bd
000001f0: eaba bebc e836 a3bb 4309 053d c222 1bbd
00000200: 25fb 0bbd 32fe 23bd d0b0 6cbb 17ad 023d
00000210: 93e9 3f3d cbd3 403d 9014 8e3b c0e0 ceba
00000220: 0d38 123d a4f3 97bc e0d9 083c 96ef e33c
00000230: 3ff2 2d3d 70a4 b6bc bd28 173d 4a7d f53c
00000240: 825f c03c e698 d03c 6563 373d bdd8 bfbc
00000250: 5651 2cbd fa28 fcbc fb33 143d 9760 b8bc
00000260: 4128 103d 6c2a 083c 99b9 063d 6c41 273c
00000270: 2919 033d cb13 0b3d c38b a6bc 8ed9 8f3c
00000280: ec5f 6ebc 9430 19bc f4cd 7e3c 6a00 c03c
00000290: edcd 0abd ba62 84bc e784 32bd 4d79 0a3d
000002a0: 7297 803c e041 6e3b d898 1dbd da7c de3c
000002b0: 30d0 b13b 4928 263d 2dcc d7bc 002c 8d3b
000002c0: 8699 ea3c 6d7d 18bd 3abe 88bc 98eb dbbb
000002d0: 68e6 e3bb 10dc 02bd 9bd7 2b3d 0d57 13bd
000002e0: 40f4 d1bb 382b 1a3c 0cb4 27bc 3155 183d
000002f0: a3ee 11bd ae35 d43c 34a6 59bc ca0c e2bc
00000300: 00c8 b839 185a c53b 209a 0fbb a6c0 c33c
00000310: 520c 8b3c 590e 203d 951b 193d bdce d4bc
00000320: 40e3 393c 9891 0b3c 1445 673c 50f6 773b
00000330: fa3f 9abc b05e 29bd a8d8 4cbc 6563 003d
00000340: 87ac afbc 04c1 7f3c 101e 9f3b 25b7 09bd
00000350: 01cd 343d 2150 4b3d 3a9a 24bd 2529 1c3d
00000360: a36f 053d cdb7 183d ca96 dfbc 9905 2b3d
00000370: 8071 763a 71b1 123d d452 6e3c 13e5 0cbd
00000380: 33dc 173d ebcd 093d ea17 14bd 066c 9c3c
00000390: c63f 9d3c b5cc 3cbd 0010 d53b e99f 0c3d
000003a0: 1675 a73c 3087 d93b 6bf9 11bd 57b4 103d
000003b0: 00ae 86bb ae8b c93c 920e bd3c 08de 4dbc
000003c0: 66fd 02bd 1664 f73c 7f76 2f3d 4133 293d
000003d0: 68f6 df3b f458 4d3c d665 e93c ba7f 8fbc
000003e0: 10d3 de3b a260 f23c 3d53 cebc 0554 4cbd
000003f0: a867 d9bb 0574 43bd 6d7a 07bd 20fb 383c

fc1.bias f4 [120]
0.044951554 0.0474512 -0.009622365 -0.015466921 0.02093159 0.03513277 -0.03524835 -0.005805988
-0.04451501 0.023985717 0.045578975 0.039847914 0.030873653 -0.043319236 0.029471058 0.013002347
0.0058185346 0.029935721 -0.011062484 0.0037122592 0.030327778 -0.048216164 -0.016450904 -0.03477473
0.02200764 -0.013780415 0.034623552 -0.017009474 0.0047792383 -0.04322503 0.048513282 -0.046086784
-0.04061646 -0.04133465 -0.0113139935 0.023566093 -0.012515049 0.008269943 0.0006889701 0.035624254
-0.015906043 -0.0028311014 0.014628496 0.015006911 0.033522878 -0.048637208 -0.015374821 7.224828e-05
0.013288986 0.036447305 0.022515986 0.022116136 0.034659598 0.01681346 0.030675549 -0.048179235
-0.03543533 0.019594546 0.043814268 0.012543049 0.0070154667 -0.0020678937 -0.008361138 0.049780343
-0.022162795 -0.007100921 0.035203967 0.038916346 0.046760354 -0.008273911 0.04303835 0.02607077
-0.01529783 -0.0036881864 -0.026044464 0.006133832 0.019785706 0.026591975 0.0023891628 -0.032603133
-0.0058372095 -0.041092474 -0.041351445 -0.015641652 -0.004140228 0.03587505 -0.023503512 -0.03330127
0.015116338 0.018390719 -0.009193044 -0.0067326836 -0.0142301135 0.03584652 -0.024038464 -0.03536846
-0.02161873 0.029940251 0.036288116 -0.039170146 -0.028344309 0.040397603 -0.0030174032 -0.047842223
0.036350552 0.003102284 -0.010559507 0.022103433 0.021349277 0.027157944 0.02004299 -0.036921203
-0.0024278834 -0.046111982 -0.013904829 -0.026712095 -0.029083395 -0.033238478 -0.040362556 0.011714458
00000000: 1f1f 383d 315c 423d 20a7 1dbc f868 7dbc
00000010: ba78 ab3c 61e7 0f3d 9360 10bd 2840 bebb
00000020: 5f55 36bd b27d c43c 05b1 3a3d 9137 233d
00000030: beea fc3c 836f 31bd 4a6d f13c cc07 553c
00000040: 68a9 be3b c23b f53c 6c3f 35bc 6049 733b
00000050: f671 f83c 507e 45bd 0cc4 86bc f36f 0ebd
00000060: 5e49 b43c 40c7 61bc 6dd1 0d3d 7457 8bbc
00000070: 289b 9c3b bb0c 31bd ddb5 463d 7fc5 3cbd
00000080: 725d 26bd 864e 29bd 545e 39bc ae0d c13c
00000090: ec0b 4dbc a87e 073c 009c 343a bdea 113d
000000a0: 644d 82bc 008a 39bb 5cac 6f3c 8cdf 753c
000000b0: 494f 093d cf37 47bd ace6 7bbc 0084 9738
000000c0: 0cba 593c c549 153d 7273 b83c e62c b53c
000000d0: 39f7 0d3d 62bc 893c 4a4b fb3c 9757 45bd
000000e0: a324 11bd be84 a03c 9776 333d 5c81 4d3c
000000f0: 00e2 e53b 8085 07bb 28fd 08bc 79e6 4b3d
00000100: c08e b5bc d8ae e8bb 0932 103d bf66 1f3d
00000110: c987 3f3d 4c8f 07bc fb48 303d 5e92 d53c
00000120: c0a3 7abc 80b5 71bb 335b d5bc 50fe c83b
00000130: a215 a23c 6ad7 d93c 8093 1c3b dd8a 05bd
00000140: 1046 bfbb 9550 28bd 2260 29bd ec22 80bc
00000150: c0aa 87bb b7f1 123d 708a c0bc ea66 08bd
00000160: 84aa 773c 22a8 963c 6c9e 16bc d89d dcbb
00000170: 6c25 69bc cdd3 123d 50ec c4bc 85de 10bd
00000180: c319 b1bc 4245 f53c d9a2 143d e070 20bd
00000190: 5332 e8bc f577 253d a0bf 45bb 35f6 43bd
000001a0: 51e4 143d b04f 4b3b c801 2dbc 4212 b53c
000001b0: aee4 ae3c 567a de3c 3231 a43c b03a 17bd
000001c0: 201d 1fbb ebdf 3cbd 14d1 63bc 53d3 dabc
000001d0: 4d40 eebc 1225 08bd 3553 25bd 00ee 3f3c

fc2.weight f4 [84, 120]
0.0076225474 -0.029707387 -0.019962355 0.039585963 0.0018545762 0.06180209 0.07865536 0.07089332
-0.015518986 0.05776453 -0.07269043 0.022559486 0.04204449 0.05464685 -0.06370527 -0.021385238
-0.008926369 -0.06857395 0.0010064021 0.062449217 -0.039118472 -0.01806654 -0.07162689 -0.083698474
-0.066630624 0.038578108 -0.070466325 0.019299299 0.024827324 -0.065050036 -0.08404021 -0.010459952
-0.018367387 -0.03206342 -0.036380753 -0.061887782 -0.020143278 -0.0053486004 -0.08056561 -0.033965226
-0.017174967 -0.015849993 0.072624326 0.063372225 0.009625055 0.056932718 -0.06553726 0.07999909
-0.09029107 0.00723549 0.026911646 -0.024484158 -0.08830284 -0.018688396 -0.03446298 -0.08262382
0.05916828 0.029810406 0.005646363 0.08503552 0.063142195 -0.01453983 0.09120506 0.012864485
1.0468066e-05 0.05744867 -0.010390595 -0.010095276 0.083002135 -0.046466507 0.03930156 0.051045686
-0.0008286312 0.049695477 -0.058263592 0.00595662 0.07264641 -0.0026654303 -0.056473907 0.022147603
-0.014278419 0.017745696 -0.016730785 0.06406404 -0.022870637 0.019019559 0.011463262 -0.022225
0.043816254 0.0013360605 0.054595545 -0.044837136 0.06333414 -0.03454142 -0.01808849 0.062080458
0.044824943 -0.07009975 0.072676644 0.044883132 -0.01576586 0.027176164 0.04109776 -0.091069534
0.0670805 -0.072808735 0.049843147 -0.0705729 0.07063058 0.004553139 -0.0368234 0.018473662
0.07113838 0.06873962 -0.039057236 0.087707 0.08482525 0.0512591 0.08396965 0.007841803
0.046789244 -0.0059137717 0.011395171 -0.07166972 -0.08808608 -0.009941794 0.020706818 0.003466636
0.059227854 -0.004145026 -0.08410757 0.030086316 -0.08475189 -0.06380925 0.009706922 0.08780046
-0.009483114 0.055705547 0.07638161 -0.09067527 0.07886337 -0.08279958 0.020186312 0.08813365
-0.07467058 0.082328185 -0.024796687 0.032924853 0.04083641 0.003922157 0.052675813 0.089370266
0.06741981 0.003966324 0.06512262 -0.010095157 -0.03625737 -0.03128386 0.08073902 -0.054488774
-0.028703965 -0.023918606 -0.04298724 -0.08581438 -0.018944748 -0.07998889 -0.06040678 0.02126646
-0.0556844 -0.082224384 -0.048200097 0.038758114 0.0363601 0.009209439 0.053031176 -0.08682253
-0.015592113 0.0035412088 -0.06323579 -0.06368739 0.07433036 0.04817818 -0.03940902 -0.048443586
-0.048073296 0.0421793 -0.04893366 0.048832312 0.03797561 -0.044581555 0.035201743 -0.034820933
0.0759943 -0.0393829 -0.077059165 -0.083120905 -0.029548377 0.065804645 0.044089556 0.038488895
-0.08173047 -0.067477904 -0.07624664 0.023944266 -0.042337034 0.0050111637 0.008189879 -0.05630103
0.09080753 0.00701838 -0.0107289255 0.062422127 0.027487524 0.0074536502 0.009587951 0.024284162
-0.013900422 0.0022546872 0.013130188 0.034627214 -0.0096496865 0.0445624 -0.012936458 0.07203476
0.0031962767 0.08732273 0.038193494 0.0160136 -0.05154242 -0.07193647 -0.034885637 -0.08670599
0.009480678 0.035507724 -0.08336171 0.005774848 -0.01873228 0.052272826 0.07028821 0.012279354
-0.06631987 0.0030504093 0.059011623 -0.06106063 -0.026609294 0.034540653 -0.05528171 0.013837211
-0.02951179 0.08432746 -0.011395402 0.05004771 -0.033106823 0.063888416 0.040113717 -0.024648353
00000000: 90c6 f93b e85c f3bc 1888 a3bc e424 223d
00000010: 4015 f33a 3024 7d3d 1016 a13d 8430 913d
00000020: 5843 7ebc 809a 6c3d b8de 94bd acce b83c
00000030: d836 2c3d 60d5 5f3d e977 82bd 1830 afbc
00000040: e83f 12bc 8070 8cbd 40e9 833a c0ca 7f3d
00000050: b13a 20bd 4800 94bc 1eb1 92bd 1b6a abbd
00000060: a375 88bd 1404 1e3d a650 90bd 9019 9e3c
00000070: ac62 cb3c f438 85bd 461d acbd 3860 2bbc
00000080: 3477 96bc ef54 03bd fc03 15bd 0b7e 7dbd
00000090: 8403 a5bc 5043 afbb 95ff a4bd 1f1f 0bbd
000000a0: 84b2 8cbc d8d7 81bc 10bc 943d 4cc9 813d
000000b0: 68b2 1d3c 4832 693d 6638 86bd 90d6 a33d
000000c0: 86ea b8bd b017 ed3b d075 dc3c 0093 c8bc
000000d0: 1fd8 b4bd 6818 99bc 0e29 0dbd ad36 a9bd
000000e0: 705a 723d f434 f43c 2005 b93b 1a27 ae3d
000000f0: b250 813d 7838 6ebc b8c9 ba3d 90c5 523c
00000100: 00a0 2f37 4c4f 6b3d 503d 2abc a866 25bc
00000110: 06fd a93d aa53 3ebd acfa 203d 4815 513d
00000120: 8038 59ba 7c8d 4b3d cea5 6ebd c02f c33b
00000130: a4c7 943d 80ae 2ebb 2f51 67bd e46e b53c
00000140: 08f0 69bc 6c5f 913c 000f 89bc 0234 833d
00000150: 345b bbbc e8ce 9b3c 68d0 3b3c 3411 b6bc
00000160: ac78 333d c01e af3a 949f 5f3d 25a7 37bd
00000170: 54b5 813d 4e7b 0dbd 502e 94bc 1448 7e3d
00000180: 5c9a 373d 7590 8fbd 7ed7 943d 60d7 373d
00000190: 6827 81bc 8ca0 de3c 2056 283d aa82 babd
000001a0: 8061 893d bf1c 95bd 5428 4c3d 8688 90bd
000001b0: c4a6 903d 8032 953b 22d4 16bd 1456 973c
000001c0: 00b1 913d 5cc7 8c3d 7bfa 1fbd ba9f b33d
000001d0: dcb8 ad3d 10f5 513d 48f8 ab3d e87a 003c
000001e0: 14a6 3f3d 50c8 c1bb d0b2 3a3c 93c7 92bd
000001f0: 7a66 b4bd e8e2 22bc 58a1 a93c 8030 633b
00000200: e898 723d 00d3 87bb 9740 acbd 9477 f63c
00000210: 6692 adbd 6dae 82bd c809 1f3c bad0 b33d
00000220: 105f 1bbc 802b 643d f66d 9c3d f5b3 b9bd
00000230: 1e83 a13d d492 a9bd c45d a53c 6a7f b43d
00000240: e4ec 98bd ae9b a83d 6c22 cbbc 36dc 063d
00000250: 1444 273d 7085 803b 98c2 573d c207 b73d
00000260: 6613 8a3d f0f7 813b 025f 853d 2866 25bc
00000270: 9c82 14bd 8123 00bd 805a a53d 9f2f 5fbd
00000280: 9424 ebbc f4f0 c3bc 6313 30bd 73bf afbd
00000290: 0432 9bbc 37d1 a3bd 1a6d 77bd 0037 ae3c
000002a0: 5315 64bd 4265 a8bd 776d 45bd d4c0 1e3d
000002b0: 54ee 143d 30e3 163c 3837 593d 03d0 b1bd
000002c0: 1076 7fbc a013 683b c481 81bd 896e 82bd
000002d0: 843a 983d 7c56 453d 5a6b 21bd c86c 46bd
000002e0: 81e8 44bd 34c4 2c3d a96e 48bd 6404 483d
000002f0: 508c 1b3d 269b 36bd b42f 103d 65a0 0ebd
00000300: e6a2 9b3d f74f 21bd 32d1 9dbd 4b3b aabd
00000310: 700f f2bc 96c4 863d 4097 343d 88a6 1d3d
00000320: 4e62 a7bd db31 8abd 3327 9cbd c426 c43c
00000330: 9969 2dbd b034 a43b d82e 063c e99b 66bd
00000340: 4cf9 b93d 70fa e53b 60c8 2fbc 58ae 7f3d
00000350: 842d e13c c03d f43b c816 1d3c 94ef c63c
00000360: 98be 63bc 60c3 133b 0020 573c 44d5 0d3d
00000370: b819 1ebc 1087 363d 70f3 53bc f686 933d
00000380: a078 513b 42d6 b23d c870 1c3d f42e 833c
00000390: 251e 53bd 6e53 93bd 3ee4 0ebd e992 b1bd
000003a0: d854 1b3c 8c70 113d 8bb9 aabd f03a bd3b
000003b0: 7074 99bc 081c 563d 44f3 8f3d 582f 493c
000003c0: b6d2 87bd 60e9 473b 2cb6 713d b61a 7abd
000003d0: bcfb d9bc 807a 0d3d 136f 62bd 78b5 623c
000003e0: b6c2 f1bc e0b3 ac3d c8b3 3abc d4fe 4c3d
000003f0: 059b 07bd eed7 823d 484e 243d 58eb c9bc

fc2.bias f4 [84]
0.027500823 0.032700576 0.02358044 0.08787249 0.06190175 -0.06976952 0.05256179 0.08276354
-0.038381632 0.035990328 0.016602375 0.012109026 0.06953868 0.0067879036 0.08393806 0.056894585
0.081614524 0.03382568 -0.046617575 0.01770854 0.07777801 0.055082053 -0.01908996 0.08700284
-0.073182575 0.024679124 0.0443836 -0.024033405 -0.04075832 0.025344938 -0.059704233 -0.060570788
0.06333622 -0.009975284 0.061428934 -0.07224826 0.024346769 0.013011277 -0.045043256 0.001982905
-0.0022367388 -0.044055223 -0.049541924 -0.08641498 -0.026413858 -0.021430641 0.04030049 -0.0325954
-0.08345533 -0.02720455 -0.070752956 0.08396566 -0.023567505 -0.0890307 -0.08360213 0.08275451
0.053070247 -0.008324869 -0.065711856 -0.05153512 0.012948856 0.014813587 0.08225544 -0.05636836
0.042020485 -0.044525284 -0.036556773 0.08871786 -0.064620234 0.049810544 0.062598854 0.01242701
-0.08551037 0.038154826 0.08002406 -0.04320803 0.064920545 -0.07820854 0.031317137 0.05106172
-0.054412216 -0.039782662 -0.050112862 0.06906448
00000000: 6849 e13c 0af1 053d c42b c13c 7ef6 b33d
00000010: b08c 7d3d 52e3 8ebd 084b 573d ee7f a93d
00000020: 0f36 1dbd 986a 133d b401 883c f064 463c
00000030: 4c6a 8e3d 106d de3b b8e7 ab3d 4c0a 693d
00000040: 8425 a73d cc8c 0a3d 12f2 3ebd 8011 913c
00000050: 144a 9f3d b89d 613d 8c62 9cbc 8c2e b23d
00000060: bfe0 95bd e02b ca3c 94cb 353d b4e1 c4bc
00000070: 32f2 26bd 30a0 cf3c 6d8c 74bd 1319 78bd
00000080: 6cb6 813d 606f 23bc e89c 7b3d e5f6 93bd
00000090: e072 c73c 402d 553c 477f 38bd a0f3 013b
000000a0: 4096 12bb 4073 34bd 79ec 4abd 56fa b0bd
000000b0: e061 d8bc 508f afbc 2012 253d c182 05bd
000000c0: a1ea aabd 14dc debc ede6 90bd 30f6 ab3d
000000d0: a410 c1bc ba55 b6bd 9837 abbd 327b a93d
000000e0: 3060 593d 0865 08bc f093 86bd 7d16 53bd
000000f0: 7027 543c b0b4 723c 8a75 a83d 82e2 66bd
00000100: ac1d 2c3d 2560 36bd 8ebc 15bd b6b1 b53d
00000110: 9d57 84bd 2406 4c3d d433 803d a89a 4b3c
00000120: 1020 afbd 3c48 1c3d a8e3 a33d e7fa 30bd
00000130: 10f5 843d cd2b a0bd 6646 003d 1826 513d
00000140: 58df 5ebd 25f3 22bd 2543 4dbd ae71 8d3d

fc3.weight f4 [10, 84]
0.025649853 -0.10733713 -0.06316529 0.061112575 -0.090819694 0.001705125 -0.095779225 0.10045297
0.0027368292 -0.0022767782 0.06597353 -0.054844435 -0.042248115 0.05043385 0.034567066 0.027829163
0.037132077 -0.10376696 -0.003364198 -0.059004635 -0.004726827 -0.014382206 0.027658068 0.104810424
0.091535084 0.04361532 -0.06745602 -0.06482169 -0.032908008 0.059196927 -0.0024835318 0.044205226
0.06528867 0.013038643 -0.09053927 -0.014040582 -0.0082056895 0.038442932 -0.05344312 -0.080859505
0.001101546 0.018599592 -0.09526114 -0.019838803 -0.034119084 0.046780698 -0.012000337 -0.00090212375
-0.03019365 -0.079248324 -0.035230897 0.10355493 0.077180244 -0.01573024 -0.061844863 -0.019922376
-0.044178054 0.07511706 -0.04573205 -0.0658417 -0.021835163 0.023419239 -0.03633932 0.094699256
-0.04291542 -0.061279394 0.09283044 -0.06782268 -0.10905542 0.07192873 0.07160672 -0.09324696
-0.095933944 -0.008363478 0.057562 -0.061090324 -0.07032614 0.081199534 0.06462895 -0.0031665936
0.06645466 0.06769464 0.08384972 -0.011942193 0.03201396 0.07437336 0.0019733682 0.062090673
0.105322786 0.065759666 0.063848324 -0.046843365 -0.007187158 -0.0021500736 0.013023257 -0.105508134
0.101252444 -0.035039812 0.085510634 -0.052744668 -0.08819344 -0.054031964 -0.027731605 0.028050356
-0.0070655644 0.07894377 -0.073231995 -0.04418782 0.008518986 0.09072346 -0.04455336 -0.086662814
-0.0642951 -0.022709116 -0.046034828 0.05350087 0.10486191 -0.10863074 0.07743984 -0.05488478
-0.071461715 -0.062241595 -0.07552804 0.021809436 0.09864316 -0.08183155 0.043381803 0.08472941
0.06933648 -0.05055933 -0.06875401 0.09483869 0.050122567 -0.0077250227 -0.05388859 0.08920523
-0.07801995 0.05003018 0.02735605 0.098767675 -0.023495287 -0.047568873 0.055781476 0.087380074
0.09470854 0.03708411 -0.006298214 -0.10385637 0.028161682 0.064421155 0.10157441 0.06673471
-0.09989462 0.0925213 0.05396179 -0.028050087 -0.017989054 0.08476674 0.075828634 0.039013885
-0.08356938 0.027739294 0.027643971 -0.05162417 -0.036394708 -0.058535427 -0.07508542 0.03743615
-0.10330816 -0.059896808 0.09536786 -0.069493145 0.042813323 0.0052810237 -0.05309762 0.09248959
0.039472453 0.09985375 -0.017494395 -0.0120425895 -0.0046781003 -0.06159923 -0.08410236 0.08586589
-0.09690594 -0.030904077 0.017095812 0.06308117 0.044455253 -0.0737298 0.072994746 0.10441064
-0.08063155 -0.09549184 -0.017232113 0.051474042 -0.07081979 -0.058935203 0.06588284 0.056553714
0.10881113 -0.10508749 -0.06820157 0.05085147 -0.004559666 -0.017051212 -0.0844858 -0.100562885
0.10907949 0.07631523 0.010899305 -0.016103484 -0.047876652 0.09352585 0.038275845 0.0042335168
0.06854998 -0.04338953 0.014236167 0.06470194 0.057761736 -0.02401635 -0.046460144 0.106105305
-0.023829482 -0.06448938 -0.0953038 -0.009615794 -0.10593156 -0.106379434 -0.06659982 0.034419633
0.08051885 0.025290377 0.045083903 0.03955085 -0.0016913489 -0.07079007 -0.014732942 0.0053198487
-0.045869492 -0.058969736 0.10894386 0.095212094 0.082120456 -0.04376544 -0.10732314 0.06344483
-0.092228115 0.044681184 0.027782746 0.001921691 -0.030647404 -0.05408653 0.0041174814 0.098083355
00000000: a41f d23c 92d3 dbbd ce5c 81bd 2e51 7a3d
00000010: adff b9bd 807e df3a e627 c4bd 49ba cd3d
00000020: 605c 333b 0036 15bb 211d 873d 8fa4 60bd
00000030: 5c0c 2dbd ba93 4e3d 3296 0d3d fcf9 e33c
00000040: ce17 183d c683 d4bd e079 5cbb d8ae 71bd
00000050: 80e3 9abb 58a3 6bbc 2c93 e23c d9a6 d63d
00000060: bf76 bb3d faa5 323d 6226 8abd 3cc1 84bd
00000070: 8cca 06bd 7a78 723d c0c2 22bb 8a10 353d
00000080: 11b6 853d 08a0 553c a76c b9bd 780a 66bc
00000090: 2871 06bc 5676 1d3d 2ce7 5abd ab99 a5bd
000000a0: c061 903a 2c5e 983c 4618 c3bd fc84 a2bc
000000b0: 74c0 0bbd 1e9d 3f3d 109d 44bc 807c 6cba
000000c0: ac58 f7bc f24c a2bd 464e 10bd 9b14 d43d
000000d0: ad10 9e3d b4dc 80bc 0a51 7dbd 4034 a3bc
000000e0: 0cf4 34bd f9d6 993d 8851 3bbd 03d8 86bd
000000f0: a8df b2bc b4d9 bf3c 8ad8 14bd aff1 c13d
00000100: 14c8 2fbd 1a00 7bbd e31d be3d 9ee6 8abd
00000110: 7358 dfbd 5f4f 933d 8ba6 923d 43f8 bebd
00000120: 0479 c4bd f806 09bc 22c6 6b3d d939 7abd
00000130: 2707 90bd f14b a63d 2f5c 843d a086 4fbb
00000140: 6119 883d 7da3 8a3d 67b9 ab3d 30a9 43bc
00000150: 1221 033d 0f51 983d a053 013b ca52 7e3d
00000160: 79b3 d73d 01ad 863d e9c2 823d d4de 3fbd
00000170: 4082 ebbb 40e8 0cbb 805f 553c a614 d8bd
00000180: 715d cf3d e885 0fbd 3320 af3d cb0a 58bd
00000190: c39e b4bd 9f50 5dbd 642d e3bc dcc9 e53c
000001a0: 4086 e7bb 45ad a13d a8fa 95bd 4afe 34bd
000001b0: 3893 0b3c 39cd b93d 967d 36bd 467c b1bd
000001c0: 26ad 83bd 7808 babc 048f 3cbd ba23 5b3d
000001d0: d7c1 d63d cb79 debd c798 9e3d ddce 60bd
000001e0: 855a 92bd 0bf1 7ebd 72ae 9abd b4a9 b23c
000001f0: 6d05 ca3d 4d97 a7bd 1eb1 313d 9d86 ad3d
00000200: 4900 8e3d 4d17 4fbd e7ce 8cbd c93a c23d
00000210: 524d 4d3d 3022 fdbb 48ba 5cbd 3bb1 b63d
00000220: ecc8 9fbd 72ec 4c3d cc19 e03c b546 ca3d
00000230: 3079 c0bc 94d7 42bd 1e7b 643d 53f4 b23d
00000240: 8df6 c13d 82e5 173d 4061 cebb a6b2 d4bd
00000250: 54b3 e63c 3def 833d 3f06 d03d 35ac 883d
00000260: 8d95 ccbd cf7b bd3d 0a07 5d3d 4cc9 e5bc
00000270: c85d 93bc 2f9a ad3d 0b4c 9b3d 06cd 1f3d
00000280: 6c26 abbd 843d e33c 9c75 e23c de73 53bd
00000290: 9e12 15bd d8c2 6fbd 62c6 99bd a656 193d
000002a0: 3b93 d3bd 5b56 75bd 3950 c33d 6c52 8ebd
000002b0: 065d 2f3d 700c ad3b e47c 59bd 2f6b bd3d
000002c0: dead 213d 1f80 cc3d 6850 8fbc 484e 45bc
000002d0: c04a 99bb 794f 7cbd dc3d acbd 75da af3d
000002e0: 9f76 c6bd 8c2a fdbc 840c 8c3c b330 813d
000002f0: b616 363d a6ff 96bd 457e 953d 3fd5 d53d
00000300: 2722 a5bd 3a91 c3bd 5c2a 8dbc 72d6 523d
00000310: f709 91bd 0a66 71bd 95ed 863d dea4 673d
00000320: 5fd8 de3d 1c38 d7bd 44ad 8bbd a249 503d
00000330: 4069 95bb fcae 8bbc e406 adbd eaf3 cdbd
00000340: 1165 df3d 294b 9c3d 0093 323c 74eb 83bc
00000350: 4f1a 44bd 7b8a bf3d 22c7 1c3d 50b9 8a3b
00000360: ef63 8c3d 38b9 31bd d03e 693c 7382 843d
00000370: 9297 6c3d f0bd c4bc fe4c 3ebd bd4d d93d
00000380: 0c36 c3bc 0213 84bd a42e c3bd 908b 1dbc
00000390: a5f2 d8bd 76dd d9bd 7d65 88bd 9afb 0c3d
000003a0: 11e7 a43d c42d cf3c e6a9 383d 1200 223d
000003b0: 40b0 ddba 62fa 90bd 7062 71bc 2052 ae3b
000003c0: a6e1 3bbd 408a 71bd f51d df3d 8ffe c23d
000003d0: c52e a83d 6443 33bd 3ccc dbbd 5def 813d
000003e0: 18e2 bcbd 9e03 373d a498 e33c 40e1 fb3a
000003f0: 4410 fbbc d689 5dbd f0eb 863b eddf c83d

fc3.bias f4 [10]
-0.07132471 0.025640227 0.012369275 -0.059347883 -0.014670305 0.074375965 0.02338215 0.10283501
0.048670106 -0.10041973
00000000: b112 92bd 740b d23c 80a8 4a3c c416 73bd
00000010: b85b 70bc 6d52 983d ec8b bf3c 299b d23d
00000020: 4e5a 473d dca8 cdbd
